…
2021-01-14 19:37:09.499223: I tensorflow/compiler/jit/xla_gpu_device.cc:99] Not creating XLA devices, tf_xla_enable_xla_devices not set
2021-01-14 19:37:09.499253: I tensorflow/core/common_runtime/gpu/gpu_device.cc:1261] Device interconnect StreamExecutor with strength 1 edge matrix:
2021-01-14 19:37:09.499261: I tensorflow/core/common_runtime/gpu/gpu_device.cc:1267]      
Model: "sequential"
_________________________________________________________________
Layer (type)                 Output Shape              Param #   
=================================================================
lambda (Lambda)              (None, 66, 200, 3)        0         
_________________________________________________________________
conv2d (Conv2D)              (None, 31, 98, 24)        1824      
_________________________________________________________________
conv2d_1 (Conv2D)            (None, 14, 47, 36)        21636     
_________________________________________________________________
conv2d_2 (Conv2D)            (None, 5, 22, 48)         43248     
_________________________________________________________________
conv2d_3 (Conv2D)            (None, 3, 20, 64)         27712     
_________________________________________________________________
conv2d_4 (Conv2D)            (None, 1, 18, 64)         36928     
_________________________________________________________________
dropout (Dropout)            (None, 1, 18, 64)         0         
_________________________________________________________________
flatten (Flatten)            (None, 1152)              0         
_________________________________________________________________
dense (Dense)                (None, 100)               115300    
_________________________________________________________________
dense_1 (Dense)              (None, 50)                5050      
_________________________________________________________________
dense_2 (Dense)              (None, 10)                510       
_________________________________________________________________
dense_3 (Dense)              (None, 1)                 11        
=================================================================
Total params: 252,219
Trainable params: 252,219
Non-trainable params: 0
_________________________________________________________________
None
2021-01-14 19:37:10.057550: W tensorflow/core/framework/cpu_allocator_impl.cc:80] Allocation of 7785676800 exceeds 10% of free system memory.
2021-01-14 19:37:13.101595: I tensorflow/compiler/mlir/mlir_graph_optimization_pass.cc:116] None of the MLIR optimization passes are enabled (registered 2)
…
